…
layer {
  name: "data"
  type: "Python"
  top: "data_map_lomo"
  top: "data_map_lomo_p"
  top: "label"
  include {
    phase: TRAIN
  }
  python_param {
    module: "cuhk03_SeqIn_layer"
    layer: "videoReadTrain"
    param_str: "{\'Train_batch_size\':\'800\',\'multylabel\':\'False\',\'deep\':\'False\',\'lomo\':\'False\',\'lomo_dim\':\'26960\',\'map_lomo\':\'True\',\'RGB\':\'True\',\'HSV\':\'True\',\'SILTP\':\'True\',\'data_dir\':\'data_aug\',\'lomo_dir\':\'lomo_map\',\'block_size\':\'8\',\'block_step\':\'4\',\'bin_size\':\'8\',\'pad_size\':\'2\'}"
  }
}
layer {
  name: "conv1"
  type: "Convolution"
  bottom: "data_map_lomo"
  top: "conv1"
  param {
    name: "conv1_w"
    lr_mult: 1
    decay_mult: 1
  }
  param {
    name: "conv1_b"
    lr_mult: 2
    decay_mult: 0
  }
  convolution_param {
    num_output: 128
    pad: 1
    kernel_size: 3
    stride: 1
    weight_filler {
      type: "gaussian"
      std: 0.01
    }
    bias_filler {
      type: "constant"
      value: 0.1
    }
  }
}
layer {
  name: "relu1"
  type: "ReLU"
  bottom: "conv1"
  top: "conv1"
}
layer {
  name: "pool1"
  type: "Pooling"
  bottom: "conv1"
  top: "pool1"
  pooling_param {
    pool: MAX
    kernel_size: 3
    stride: 2
  }
}
layer {
  name: "conv2"
  type: "Convolution"
  bottom: "pool1"
  top: "conv2"
  param {
    name: "conv2_w"
    lr_mult: 1
    decay_mult: 1
  }
  param {
    name: "conv2_b"
    lr_mult: 2
    decay_mult: 0
  }
  convolution_param {
    num_output: 256
    pad: 1
    kernel_size: 3
    stride: 1
    weight_filler {
      type: "gaussian"
      std: 0.01
    }
    bias_filler {
      type: "constant"
      value: 0.1
    }
  }
}
layer {
  name: "relu2"
  type: "ReLU"
  bottom: "conv2"
  top: "conv2"
}
layer {
  name: "pool2"
  type: "Pooling"
  bottom: "conv2"
  top: "pool2"
  pooling_param {
    pool: MAX
    kernel_size: 3
    stride: 2
  }
}
layer {
  name: "conv3"
  type: "Convolution"
  bottom: "pool2"
  top: "conv3"
  param {
    name: "conv3_w"
    lr_mult: 1
    decay_mult: 1
  }
  param {
    name: "conv3_b"
    lr_mult: 2
    decay_mult: 0
  }
  convolution_param {
    num_output: 512
    pad: 1
    kernel_size: 3
    stride: 1
    weight_filler {
      type: "gaussian"
      std: 0.01
    }
    bias_filler {
      type: "constant"
      value: 0.1
    }
  }
}
layer {
  name: "relu3"
  type: "ReLU"
  bottom: "conv3"
  top: "conv3"
}
layer {
  name: "conv1_p"
  type: "Convolution"
  bottom: "data_map_lomo_p"
  top: "conv1_p"
  param {
    name: "conv1_w"
    lr_mult: 1
    decay_mult: 1
  }
  param {
    name: "conv1_b"
    lr_mult: 2
    decay_mult: 0
  }
  convolution_param {
    num_output: 128
    pad: 1
    kernel_size: 3
    stride: 1
    weight_filler {
      type: "gaussian"
      std: 0.01
    }
    bias_filler {
      type: "constant"
      value: 0.1
    }
  }
}
layer {
  name: "relu1_p"
  type: "ReLU"
  bottom: "conv1_p"
  top: "conv1_p"
}
layer {
  name: "pool1_p"
  type: "Pooling"
  bottom: "conv1_p"
  top: "pool1_p"
  pooling_param {
    pool: MAX
    kernel_size: 3
    stride: 2
  }
}
layer {
  name: "conv2_p"
  type: "Convolution"
  bottom: "pool1_p"
  top: "conv2_p"
  param {
    name: "conv2_w"
    lr_mult: 1
    decay_mult: 1
  }
  param {
    name: "conv2_b"
    lr_mult: 2
    decay_mult: 0
  }
  convolution_param {
    num_output: 256
    pad: 1
    kernel_size: 3
    stride: 1
    weight_filler {
      type: "gaussian"
      std: 0.01
    }
    bias_filler {
      type: "constant"
      value: 0.1
    }
  }
}
layer {
  name: "relu2_p"
  type: "ReLU"
  bottom: "conv2_p"
  top: "conv2_p"
}
layer {
  name: "pool2_p"
  type: "Pooling"
  bottom: "conv2_p"
  top: "pool2_p"
  pooling_param {
    pool: MAX
    kernel_size: 3
    stride: 2
  }
}
layer {
  name: "conv3_p"
  type: "Convolution"
  bottom: "pool2_p"
  top: "conv3_p"
  param {
    name: "conv3_w"
    lr_mult: 1
    decay_mult: 1
  }
  param {
    name: "conv3_b"
    lr_mult: 2
    decay_mult: 0
  }
  convolution_param {
    num_output: 512
    pad: 1
    kernel_size: 3
    stride: 1
    weight_filler {
      type: "gaussian"
      std: 0.01
    }
    bias_filler {
      type: "constant"
      value: 0.1
    }
  }
}
layer {
  name: "relu3_p"
  type: "ReLU"
  bottom: "conv3_p"
  top: "conv3_p"
}
layer {
  name: "fea-all_lomo"
  type: "Concat"
  bottom: "conv3"
  bottom: "conv3_p"
  top: "fea-all_lomo"
}
layer {
  name: "conv-sm/1x1_lomo"
  type: "Convolution"
  bottom: "fea-all_lomo"
  top: "conv-sm/1x1_lomo"
  param {
    name: "w/1x1_lomo"
    lr_mult: 1
    decay_mult: 1
  }
  param {
    name: "b/1x1_lomo"
    lr_mult: 2
    decay_mult: 0
  }
  convolution_param {
    num_output: 512
    pad: 1
    kernel_size: 3
    weight_filler {
      type: "gaussian"
      std: 0.01
    }
    bias_filler {
      type: "constant"
      value: 0
    }
    dilation: 1
  }
}
layer {
  name: "relu/1x1_lomo"
  type: "ReLU"
  bottom: "conv-sm/1x1_lomo"
  top: "conv-sm/1x1_lomo"
}
layer {
  name: "conv-sm/2x2_lomo"
  type: "Convolution"
  bottom: "fea-all_lomo"
  top: "conv-sm/2x2_lomo"
  param {
    name: "w/2x2_lomo"
    lr_mult: 1
    decay_mult: 1
  }
  param {
    name: "b/2x2_lomo"
    lr_mult: 2
    decay_mult: 0
  }
  convolution_param {
    num_output: 256
    pad: 2
    kernel_size: 3
    weight_filler {
      type: "gaussian"
      std: 0.01
    }
    bias_filler {
      type: "constant"
      value: 0
    }
    dilation: 2
  }
}
layer {
  name: "relu/2x2_lomo"
  type: "ReLU"
  bottom: "conv-sm/2x2_lomo"
  top: "conv-sm/2x2_lomo"
}
layer {
  name: "conv-sm/4x4_lomo"
  type: "Convolution"
  bottom: "fea-all_lomo"
  top: "conv-sm/4x4_lomo"
  param {
    name: "w/4x4_lomo"
    lr_mult: 1
    decay_mult: 1
  }
  param {
    name: "b/4x4_lomo"
    lr_mult: 2
    decay_mult: 0
  }
  convolution_param {
    num_output: 256
    pad: 4
    kernel_size: 3
    weight_filler {
      type: "gaussian"
      std: 0.01
    }
    bias_filler {
      type: "constant"
      value: 0
    }
    dilation: 4
  }
}
layer {
  name: "relu/4x4_lomo"
  type: "ReLU"
  bottom: "conv-sm/4x4_lomo"
  top: "conv-sm/4x4_lomo"
}
layer {
  name: "sm-all_lomo"
  type: "Concat"
  bottom: "conv-sm/1x1_lomo"
  bottom: "conv-sm/2x2_lomo"
  bottom: "conv-sm/4x4_lomo"
  top: "sm-all_lomo"
}
layer {
  name: "conv4-sm_lomo"
  type: "Convolution"
  bottom: "sm-all_lomo"
  top: "conv4-sm_lomo"
  param {
    name: "conv4_w_lomo"
    lr_mult: 1
    decay_mult: 1
  }
  param {
    name: "conv4_b_lomo"
    lr_mult: 2
    decay_mult: 0
  }
  convolution_param {
    num_output: 1024
    pad: 1
    kernel_size: 3
    weight_filler {
      type: "gaussian"
      std: 0.01
    }
    bias_filler {
      type: "constant"
      value: 0.1
    }
  }
}
layer {
  name: "relu4_lomo"
  type: "ReLU"
  bottom: "conv4-sm_lomo"
  top: "conv4-sm_lomo"
}
layer {
  name: "pool5_lomo"
  type: "Pooling"
  bottom: "conv4-sm_lomo"
  top: "pool5_lomo"
  pooling_param {
    pool: MAX
    kernel_size: 3
    stride: 2
  }
}
layer {
  name: "fc6-sm_lomo"
  type: "InnerProduct"
  bottom: "pool5_lomo"
  top: "fc6-sm_lomo"
  param {
    name: "fc6_w_lomo"
    lr_mult: 1
    decay_mult: 1
  }
  param {
    name: "fc6_b_lomo"
    lr_mult: 2
    decay_mult: 0
  }
  inner_product_param {
    num_output: 1024
    weight_filler {
      type: "gaussian"
      std: 0.005
    }
    bias_filler {
      type: "constant"
      value: 0.1
    }
  }
}
layer {
  name: "relu6-sm_lomo"
  type: "ReLU"
  bottom: "fc6-sm_lomo"
  top: "fc6-sm_lomo"
}
layer {
  name: "drop6-sm_lomo"
  type: "Dropout"
  bottom: "fc6-sm_lomo"
  top: "fc6-sm_lomo"
  dropout_param {
    dropout_ratio: 0.4
  }
}
layer {
  name: "fc7-sm_lomo"
  type: "InnerProduct"
  bottom: "fc6-sm_lomo"
  top: "fc7-sm_lomo"
  param {
    name: "fc7_w_lomo"
    lr_mult: 1
    decay_mult: 1
  }
  param {
    name: "fc7_b_lomo"
    lr_mult: 2
    decay_mult: 0
  }
  inner_product_param {
    num_output: 1024
    weight_filler {
      type: "gaussian"
      std: 0.005
    }
    bias_filler {
      type: "constant"
      value: 0.1
    }
  }
}
layer {
  name: "relu7-sm_lomo"
  type: "ReLU"
  bottom: "fc7-sm_lomo"
  top: "fc7-sm_lomo"
}
layer {
  name: "drop7-sm_lomo"
  type: "Dropout"
  bottom: "fc7-sm_lomo"
  top: "fc7-sm_lomo"
  dropout_param {
    dropout_ratio: 0.4
  }
}
layer {
  name: "fc7-all_lomo"
  type: "InnerProduct"
  bottom: "fc7-sm_lomo"
  top: "fc7-all_lomo"
  param {
    lr_mult: 1
    decay_mult: 1
  }
  param {
    lr_mult: 2
    decay_mult: 0
  }
  inner_product_param {
    num_output: 2
    weight_filler {
      type: "gaussian"
      std: 0.005
    }
    bias_filler {
      type: "constant"
      value: 0.1
    }
  }
}
layer {
  name: "accuracy"
  type: "Accuracy"
  bottom: "fc7-all_lomo"
  bottom: "label"
  top: "accuracy"
}
layer {
  name: "loss"
  type: "SoftmaxWithLoss"
  bottom: "fc7-all_lomo"
  bottom: "label"
  top: "loss"
}
I0420 11:13:20.101903  3692 layer_factory.hpp:77] Creating layer data
I0420 11:13:21.035267  3692 net.cpp:100] Creating Layer data
I0420 11:13:21.035359  3692 net.cpp:408] data -> data_map_lomo
I0420 11:13:21.035389  3692 net.cpp:408] data -> data_map_lomo_p
I0420 11:13:21.035406  3692 net.cpp:408] data -> label
data list is loading:  1/100:->data list is loading:  2/100:#-
…
#->data list is loading: 96/100:################################################->data list is loading: 97/100:################################################->data list is loading: 98/100:#################################################->data list is loading: 99/100:#################################################->data list is loading:100/100:##################################################->video_list:dataset/cuhk03/split/sin_img_lomo/set02_train_noval_pair.txt
list example:
1111009
I0420 11:15:35.493980  3692 net.cpp:150] Setting up data
I0420 11:15:35.494098  3692 net.cpp:157] Top shape: 800 64 40 20 (40960000)
I0420 11:15:35.494110  3692 net.cpp:157] Top shape: 800 64 40 20 (40960000)
I0420 11:15:35.494118  3692 net.cpp:157] Top shape: 800 (800)
I0420 11:15:35.494123  3692 net.cpp:165] Memory required for data: 327683200
I0420 11:15:35.494143  3692 layer_factory.hpp:77] Creating layer label_data_2_split
I0420 11:15:35.494209  3692 net.cpp:100] Creating Layer label_data_2_split
I0420 11:15:35.494231  3692 net.cpp:434] label_data_2_split <- label
I0420 11:15:35.494257  3692 net.cpp:408] label_data_2_split -> label_data_2_split_0
I0420 11:15:35.494279  3692 net.cpp:408] label_data_2_split -> label_data_2_split_1
I0420 11:15:35.494335  3692 net.cpp:150] Setting up label_data_2_split
I0420 11:15:35.494346  3692 net.cpp:157] Top shape: 800 (800)
I0420 11:15:35.494352  3692 net.cpp:157] Top shape: 800 (800)
I0420 11:15:35.494357  3692 net.cpp:165] Memory required for data: 327689600
I0420 11:15:35.494364  3692 layer_factory.hpp:77] Creating layer conv1
I0420 11:15:35.494403  3692 net.cpp:100] Creating Layer conv1
I0420 11:15:35.494411  3692 net.cpp:434] conv1 <- data_map_lomo
I0420 11:15:35.494421  3692 net.cpp:408] conv1 -> conv1
I0420 11:15:35.910364  3692 net.cpp:150] Setting up conv1
I0420 11:15:35.910429  3692 net.cpp:157] Top shape: 800 128 40 20 (81920000)
I0420 11:15:35.910441  3692 net.cpp:165] Memory required for data: 655369600
I0420 11:15:35.910480  3692 layer_factory.hpp:77] Creating layer relu1
I0420 11:15:35.910501  3692 net.cpp:100] Creating Layer relu1
I0420 11:15:35.910511  3692 net.cpp:434] relu1 <- conv1
I0420 11:15:35.910526  3692 net.cpp:395] relu1 -> conv1 (in-place)
I0420 11:15:35.910931  3692 net.cpp:150] Setting up relu1
I0420 11:15:35.910953  3692 net.cpp:157] Top shape: 800 128 40 20 (81920000)
I0420 11:15:35.910961  3692 net.cpp:165] Memory required for data: 983049600
I0420 11:15:35.910970  3692 layer_factory.hpp:77] Creating layer pool1
I0420 11:15:35.910993  3692 net.cpp:100] Creating Layer pool1
I0420 11:15:35.911002  3692 net.cpp:434] pool1 <- conv1
I0420 11:15:35.911015  3692 net.cpp:408] pool1 -> pool1
I0420 11:15:35.911125  3692 net.cpp:150] Setting up pool1
I0420 11:15:35.911140  3692 net.cpp:157] Top shape: 800 128 20 10 (20480000)
I0420 11:15:35.911149  3692 net.cpp:165] Memory required for data: 1064969600
I0420 11:15:35.911156  3692 layer_factory.hpp:77] Creating layer conv2
I0420 11:15:35.911259  3692 net.cpp:100] Creating Layer conv2
I0420 11:15:35.911339  3692 net.cpp:434] conv2 <- pool1
I0420 11:15:35.911360  3692 net.cpp:408] conv2 -> conv2
I0420 11:15:35.924188  3692 net.cpp:150] Setting up conv2
I0420 11:15:35.924228  3692 net.cpp:157] Top shape: 800 256 20 10 (40960000)
I0420 11:15:35.924238  3692 net.cpp:165] Memory required for data: 1228809600
I0420 11:15:35.924254  3692 layer_factory.hpp:77] Creating layer relu2
I0420 11:15:35.924266  3692 net.cpp:100] Creating Layer relu2
I0420 11:15:35.924273  3692 net.cpp:434] relu2 <- conv2
I0420 11:15:35.924280  3692 net.cpp:395] relu2 -> conv2 (in-place)
I0420 11:15:35.925228  3692 net.cpp:150] Setting up relu2
I0420 11:15:35.925251  3692 net.cpp:157] Top shape: 800 256 20 10 (40960000)
I0420 11:15:35.925262  3692 net.cpp:165] Memory required for data: 1392649600
I0420 11:15:35.925307  3692 layer_factory.hpp:77] Creating layer pool2
I0420 11:15:35.925324  3692 net.cpp:100] Creating Layer pool2
I0420 11:15:35.925331  3692 net.cpp:434] pool2 <- conv2
I0420 11:15:35.925341  3692 net.cpp:408] pool2 -> pool2
I0420 11:15:35.925402  3692 net.cpp:150] Setting up pool2
I0420 11:15:35.925416  3692 net.cpp:157] Top shape: 800 256 10 5 (10240000)
I0420 11:15:35.925422  3692 net.cpp:165] Memory required for data: 1433609600
I0420 11:15:35.925428  3692 layer_factory.hpp:77] Creating layer conv3
I0420 11:15:35.925467  3692 net.cpp:100] Creating Layer conv3
I0420 11:15:35.925477  3692 net.cpp:434] conv3 <- pool2
I0420 11:15:35.925488  3692 net.cpp:408] conv3 -> conv3
I0420 11:15:35.970142  3692 net.cpp:150] Setting up conv3
I0420 11:15:35.970167  3692 net.cpp:157] Top shape: 800 512 10 5 (20480000)
I0420 11:15:35.970196  3692 net.cpp:165] Memory required for data: 1515529600
I0420 11:15:35.970209  3692 layer_factory.hpp:77] Creating layer relu3
I0420 11:15:35.970221  3692 net.cpp:100] Creating Layer relu3
I0420 11:15:35.970228  3692 net.cpp:434] relu3 <- conv3
I0420 11:15:35.970238  3692 net.cpp:395] relu3 -> conv3 (in-place)
I0420 11:15:35.971186  3692 net.cpp:150] Setting up relu3
I0420 11:15:35.971215  3692 net.cpp:157] Top shape: 800 512 10 5 (20480000)
I0420 11:15:35.971221  3692 net.cpp:165] Memory required for data: 1597449600
I0420 11:15:35.971227  3692 layer_factory.hpp:77] Creating layer conv1_p
I0420 11:15:35.971243  3692 net.cpp:100] Creating Layer conv1_p
I0420 11:15:35.971251  3692 net.cpp:434] conv1_p <- data_map_lomo_p
I0420 11:15:35.971262  3692 net.cpp:408] conv1_p -> conv1_p
I0420 11:15:35.976263  3692 net.cpp:150] Setting up conv1_p
I0420 11:15:35.976287  3692 net.cpp:157] Top shape: 800 128 40 20 (81920000)
I0420 11:15:35.976294  3692 net.cpp:165] Memory required for data: 1925129600
I0420 11:15:35.976301  3692 net.cpp:493] Sharing parameters 'conv1_w' owned by layer 'conv1', param index 0
I0420 11:15:35.976310  3692 net.cpp:493] Sharing parameters 'conv1_b' owned by layer 'conv1', param index 1
I0420 11:15:35.976315  3692 layer_factory.hpp:77] Creating layer relu1_p
I0420 11:15:35.976343  3692 net.cpp:100] Creating Layer relu1_p
I0420 11:15:35.976351  3692 net.cpp:434] relu1_p <- conv1_p
I0420 11:15:35.976359  3692 net.cpp:395] relu1_p -> conv1_p (in-place)
I0420 11:15:35.976579  3692 net.cpp:150] Setting up relu1_p
I0420 11:15:35.976594  3692 net.cpp:157] Top shape: 800 128 40 20 (81920000)
I0420 11:15:35.976600  3692 net.cpp:165] Memory required for data: 2252809600
I0420 11:15:35.976608  3692 layer_factory.hpp:77] Creating layer pool1_p
I0420 11:15:35.976634  3692 net.cpp:100] Creating Layer pool1_p
I0420 11:15:35.976641  3692 net.cpp:434] pool1_p <- conv1_p
I0420 11:15:35.976649  3692 net.cpp:408] pool1_p -> pool1_p
I0420 11:15:35.976702  3692 net.cpp:150] Setting up pool1_p
I0420 11:15:35.976713  3692 net.cpp:157] Top shape: 800 128 20 10 (20480000)
I0420 11:15:35.976719  3692 net.cpp:165] Memory required for data: 2334729600
I0420 11:15:35.976729  3692 layer_factory.hpp:77] Creating layer conv2_p
I0420 11:15:35.976742  3692 net.cpp:100] Creating Layer conv2_p
I0420 11:15:35.976749  3692 net.cpp:434] conv2_p <- pool1_p
I0420 11:15:35.976760  3692 net.cpp:408] conv2_p -> conv2_p
I0420 11:15:35.990501  3692 net.cpp:150] Setting up conv2_p
I0420 11:15:35.990525  3692 net.cpp:157] Top shape: 800 256 20 10 (40960000)
I0420 11:15:35.990532  3692 net.cpp:165] Memory required for data: 2498569600
I0420 11:15:35.990542  3692 net.cpp:493] Sharing parameters 'conv2_w' owned by layer 'conv2', param index 0
I0420 11:15:35.990550  3692 net.cpp:493] Sharing parameters 'conv2_b' owned by layer 'conv2', param index 1
I0420 11:15:35.990556  3692 layer_factory.hpp:77] Creating layer relu2_p
I0420 11:15:35.990586  3692 net.cpp:100] Creating Layer relu2_p
I0420 11:15:35.990594  3692 net.cpp:434] relu2_p <- conv2_p
I0420 11:15:35.990604  3692 net.cpp:395] relu2_p -> conv2_p (in-place)
I0420 11:15:35.990826  3692 net.cpp:150] Setting up relu2_p
I0420 11:15:35.990841  3692 net.cpp:157] Top shape: 800 256 20 10 (40960000)
I0420 11:15:35.990847  3692 net.cpp:165] Memory required for data: 2662409600
I0420 11:15:35.990854  3692 layer_factory.hpp:77] Creating layer pool2_p
I0420 11:15:35.990865  3692 net.cpp:100] Creating Layer pool2_p
I0420 11:15:35.990871  3692 net.cpp:434] pool2_p <- conv2_p
I0420 11:15:35.990880  3692 net.cpp:408] pool2_p -> pool2_p
I0420 11:15:35.990934  3692 net.cpp:150] Setting up pool2_p
I0420 11:15:35.990945  3692 net.cpp:157] Top shape: 800 256 10 5 (10240000)
I0420 11:15:35.990950  3692 net.cpp:165] Memory required for data: 2703369600
I0420 11:15:35.990972  3692 layer_factory.hpp:77] Creating layer conv3_p
I0420 11:15:35.990989  3692 net.cpp:100] Creating Layer conv3_p
I0420 11:15:35.990996  3692 net.cpp:434] conv3_p <- pool2_p
I0420 11:15:35.991008  3692 net.cpp:408] conv3_p -> conv3_p
I0420 11:15:36.040233  3692 net.cpp:150] Setting up conv3_p
I0420 11:15:36.040262  3692 net.cpp:157] Top shape: 800 512 10 5 (20480000)
I0420 11:15:36.040269  3692 net.cpp:165] Memory required for data: 2785289600
I0420 11:15:36.040277  3692 net.cpp:493] Sharing parameters 'conv3_w' owned by layer 'conv3', param index 0
I0420 11:15:36.040284  3692 net.cpp:493] Sharing parameters 'conv3_b' owned by layer 'conv3', param index 1
I0420 11:15:36.040298  3692 layer_factory.hpp:77] Creating layer relu3_p
I0420 11:15:36.040330  3692 net.cpp:100] Creating Layer relu3_p
I0420 11:15:36.040339  3692 net.cpp:434] relu3_p <- conv3_p
I0420 11:15:36.040349  3692 net.cpp:395] relu3_p -> conv3_p (in-place)
I0420 11:15:36.040586  3692 net.cpp:150] Setting up relu3_p
I0420 11:15:36.040602  3692 net.cpp:157] Top shape: 800 512 10 5 (20480000)
I0420 11:15:36.040608  3692 net.cpp:165] Memory required for data: 2867209600
I0420 11:15:36.040614  3692 layer_factory.hpp:77] Creating layer fea-all_lomo
I0420 11:15:36.040627  3692 net.cpp:100] Creating Layer fea-all_lomo
I0420 11:15:36.040634  3692 net.cpp:434] fea-all_lomo <- conv3
I0420 11:15:36.040642  3692 net.cpp:434] fea-all_lomo <- conv3_p
I0420 11:15:36.040649  3692 net.cpp:408] fea-all_lomo -> fea-all_lomo
I0420 11:15:36.040688  3692 net.cpp:150] Setting up fea-all_lomo
I0420 11:15:36.040699  3692 net.cpp:157] Top shape: 800 1024 10 5 (40960000)
I0420 11:15:36.040706  3692 net.cpp:165] Memory required for data: 3031049600
I0420 11:15:36.040712  3692 layer_factory.hpp:77] Creating layer fea-all_lomo_fea-all_lomo_0_split
I0420 11:15:36.040724  3692 net.cpp:100] Creating Layer fea-all_lomo_fea-all_lomo_0_split
I0420 11:15:36.040730  3692 net.cpp:434] fea-all_lomo_fea-all_lomo_0_split <- fea-all_lomo
I0420 11:15:36.040737  3692 net.cpp:408] fea-all_lomo_fea-all_lomo_0_split -> fea-all_lomo_fea-all_lomo_0_split_0
I0420 11:15:36.040750  3692 net.cpp:408] fea-all_lomo_fea-all_lomo_0_split -> fea-all_lomo_fea-all_lomo_0_split_1
I0420 11:15:36.040760  3692 net.cpp:408] fea-all_lomo_fea-all_lomo_0_split -> fea-all_lomo_fea-all_lomo_0_split_2
I0420 11:15:36.040825  3692 net.cpp:150] Setting up fea-all_lomo_fea-all_lomo_0_split
I0420 11:15:36.040838  3692 net.cpp:157] Top shape: 800 1024 10 5 (40960000)
I0420 11:15:36.040844  3692 net.cpp:157] Top shape: 800 1024 10 5 (40960000)
I0420 11:15:36.040853  3692 net.cpp:157] Top shape: 800 1024 10 5 (40960000)
I0420 11:15:36.040858  3692 net.cpp:165] Memory required for data: 3522569600
I0420 11:15:36.040882  3692 layer_factory.hpp:77] Creating layer conv-sm/1x1_lomo
I0420 11:15:36.040902  3692 net.cpp:100] Creating Layer conv-sm/1x1_lomo
I0420 11:15:36.040910  3692 net.cpp:434] conv-sm/1x1_lomo <- fea-all_lomo_fea-all_lomo_0_split_0
I0420 11:15:36.040920  3692 net.cpp:408] conv-sm/1x1_lomo -> conv-sm/1x1_lomo
I0420 11:15:36.216564  3692 net.cpp:150] Setting up conv-sm/1x1_lomo
I0420 11:15:36.216629  3692 net.cpp:157] Top shape: 800 512 10 5 (20480000)
I0420 11:15:36.216639  3692 net.cpp:165] Memory required for data: 3604489600
I0420 11:15:36.216653  3692 layer_factory.hpp:77] Creating layer relu/1x1_lomo
I0420 11:15:36.216706  3692 net.cpp:100] Creating Layer relu/1x1_lomo
I0420 11:15:36.216717  3692 net.cpp:434] relu/1x1_lomo <- conv-sm/1x1_lomo
I0420 11:15:36.216727  3692 net.cpp:395] relu/1x1_lomo -> conv-sm/1x1_lomo (in-place)
I0420 11:15:36.216959  3692 net.cpp:150] Setting up relu/1x1_lomo
I0420 11:15:36.216974  3692 net.cpp:157] Top shape: 800 512 10 5 (20480000)
I0420 11:15:36.216980  3692 net.cpp:165] Memory required for data: 3686409600
I0420 11:15:36.216987  3692 layer_factory.hpp:77] Creating layer conv-sm/2x2_lomo
I0420 11:15:36.217006  3692 net.cpp:100] Creating Layer conv-sm/2x2_lomo
I0420 11:15:36.217013  3692 net.cpp:434] conv-sm/2x2_lomo <- fea-all_lomo_fea-all_lomo_0_split_1
I0420 11:15:36.217025  3692 net.cpp:408] conv-sm/2x2_lomo -> conv-sm/2x2_lomo
I0420 11:15:36.293351  3692 net.cpp:150] Setting up conv-sm/2x2_lomo
I0420 11:15:36.293382  3692 net.cpp:157] Top shape: 800 256 10 5 (10240000)
I0420 11:15:36.293403  3692 net.cpp:165] Memory required for data: 3727369600
I0420 11:15:36.293457  3692 layer_factory.hpp:77] Creating layer relu/2x2_lomo
I0420 11:15:36.293486  3692 net.cpp:100] Creating Layer relu/2x2_lomo
I0420 11:15:36.293493  3692 net.cpp:434] relu/2x2_lomo <- conv-sm/2x2_lomo
I0420 11:15:36.293503  3692 net.cpp:395] relu/2x2_lomo -> conv-sm/2x2_lomo (in-place)
I0420 11:15:36.294342  3692 net.cpp:150] Setting up relu/2x2_lomo
I0420 11:15:36.294364  3692 net.cpp:157] Top shape: 800 256 10 5 (10240000)
I0420 11:15:36.294385  3692 net.cpp:165] Memory required for data: 3768329600
I0420 11:15:36.294391  3692 layer_factory.hpp:77] Creating layer conv-sm/4x4_lomo
I0420 11:15:36.294404  3692 net.cpp:100] Creating Layer conv-sm/4x4_lomo
I0420 11:15:36.294411  3692 net.cpp:434] conv-sm/4x4_lomo <- fea-all_lomo_fea-all_lomo_0_split_2
I0420 11:15:36.294420  3692 net.cpp:408] conv-sm/4x4_lomo -> conv-sm/4x4_lomo
I0420 11:15:36.360405  3692 net.cpp:150] Setting up conv-sm/4x4_lomo
I0420 11:15:36.360474  3692 net.cpp:157] Top shape: 800 256 10 5 (10240000)
I0420 11:15:36.360481  3692 net.cpp:165] Memory required for data: 3809289600
I0420 11:15:36.360496  3692 layer_factory.hpp:77] Creating layer relu/4x4_lomo
I0420 11:15:36.360536  3692 net.cpp:100] Creating Layer relu/4x4_lomo
I0420 11:15:36.360543  3692 net.cpp:434] relu/4x4_lomo <- conv-sm/4x4_lomo
I0420 11:15:36.360550  3692 net.cpp:395] relu/4x4_lomo -> conv-sm/4x4_lomo (in-place)
I0420 11:15:36.360767  3692 net.cpp:150] Setting up relu/4x4_lomo
I0420 11:15:36.360781  3692 net.cpp:157] Top shape: 800 256 10 5 (10240000)
I0420 11:15:36.360786  3692 net.cpp:165] Memory required for data: 3850249600
I0420 11:15:36.360790  3692 layer_factory.hpp:77] Creating layer sm-all_lomo
I0420 11:15:36.360818  3692 net.cpp:100] Creating Layer sm-all_lomo
I0420 11:15:36.360824  3692 net.cpp:434] sm-all_lomo <- conv-sm/1x1_lomo
I0420 11:15:36.360829  3692 net.cpp:434] sm-all_lomo <- conv-sm/2x2_lomo
I0420 11:15:36.360834  3692 net.cpp:434] sm-all_lomo <- conv-sm/4x4_lomo
I0420 11:15:36.360843  3692 net.cpp:408] sm-all_lomo -> sm-all_lomo
I0420 11:15:36.360873  3692 net.cpp:150] Setting up sm-all_lomo
I0420 11:15:36.360888  3692 net.cpp:157] Top shape: 800 1024 10 5 (40960000)
I0420 11:15:36.360893  3692 net.cpp:165] Memory required for data: 4014089600
I0420 11:15:36.360910  3692 layer_factory.hpp:77] Creating layer conv4-sm_lomo
I0420 11:15:36.360924  3692 net.cpp:100] Creating Layer conv4-sm_lomo
I0420 11:15:36.360930  3692 net.cpp:434] conv4-sm_lomo <- sm-all_lomo
I0420 11:15:36.360937  3692 net.cpp:408] conv4-sm_lomo -> conv4-sm_lomo
I0420 11:15:36.629251  3692 net.cpp:150] Setting up conv4-sm_lomo
I0420 11:15:36.629312  3692 net.cpp:157] Top shape: 800 1024 10 5 (40960000)
I0420 11:15:36.629319  3692 net.cpp:165] Memory required for data: 4177929600
I0420 11:15:36.629338  3692 layer_factory.hpp:77] Creating layer relu4_lomo
I0420 11:15:36.629357  3692 net.cpp:100] Creating Layer relu4_lomo
I0420 11:15:36.629369  3692 net.cpp:434] relu4_lomo <- conv4-sm_lomo
I0420 11:15:36.629381  3692 net.cpp:395] relu4_lomo -> conv4-sm_lomo (in-place)
I0420 11:15:36.629570  3692 net.cpp:150] Setting up relu4_lomo
I0420 11:15:36.629581  3692 net.cpp:157] Top shape: 800 1024 10 5 (40960000)
I0420 11:15:36.629586  3692 net.cpp:165] Memory required for data: 4341769600
I0420 11:15:36.629591  3692 layer_factory.hpp:77] Creating layer pool5_lomo
I0420 11:15:36.629606  3692 net.cpp:100] Creating Layer pool5_lomo
I0420 11:15:36.629611  3692 net.cpp:434] pool5_lomo <- conv4-sm_lomo
I0420 11:15:36.629621  3692 net.cpp:408] pool5_lomo -> pool5_lomo
I0420 11:15:36.629675  3692 net.cpp:150] Setting up pool5_lomo
I0420 11:15:36.629685  3692 net.cpp:157] Top shape: 800 1024 5 2 (8192000)
I0420 11:15:36.629689  3692 net.cpp:165] Memory required for data: 4374537600
I0420 11:15:36.629694  3692 layer_factory.hpp:77] Creating layer fc6-sm_lomo
I0420 11:15:36.629705  3692 net.cpp:100] Creating Layer fc6-sm_lomo
I0420 11:15:36.629710  3692 net.cpp:434] fc6-sm_lomo <- pool5_lomo
I0420 11:15:36.629719  3692 net.cpp:408] fc6-sm_lomo -> fc6-sm_lomo
I0420 11:15:36.925904  3692 net.cpp:150] Setting up fc6-sm_lomo
I0420 11:15:36.925962  3692 net.cpp:157] Top shape: 800 1024 (819200)
I0420 11:15:36.925969  3692 net.cpp:165] Memory required for data: 4377814400
I0420 11:15:36.925989  3692 layer_factory.hpp:77] Creating layer relu6-sm_lomo
I0420 11:15:36.926003  3692 net.cpp:100] Creating Layer relu6-sm_lomo
I0420 11:15:36.926010  3692 net.cpp:434] relu6-sm_lomo <- fc6-sm_lomo
I0420 11:15:36.926024  3692 net.cpp:395] relu6-sm_lomo -> fc6-sm_lomo (in-place)
I0420 11:15:36.926293  3692 net.cpp:150] Setting up relu6-sm_lomo
I0420 11:15:36.926306  3692 net.cpp:157] Top shape: 800 1024 (819200)
I0420 11:15:36.926311  3692 net.cpp:165] Memory required for data: 4381091200
I0420 11:15:36.926316  3692 layer_factory.hpp:77] Creating layer drop6-sm_lomo
I0420 11:15:36.926345  3692 net.cpp:100] Creating Layer drop6-sm_lomo
I0420 11:15:36.926350  3692 net.cpp:434] drop6-sm_lomo <- fc6-sm_lomo
I0420 11:15:36.926357  3692 net.cpp:395] drop6-sm_lomo -> fc6-sm_lomo (in-place)
I0420 11:15:36.926391  3692 net.cpp:150] Setting up drop6-sm_lomo
I0420 11:15:36.926403  3692 net.cpp:157] Top shape: 800 1024 (819200)
I0420 11:15:36.926407  3692 net.cpp:165] Memory required for data: 4384368000
I0420 11:15:36.926412  3692 layer_factory.hpp:77] Creating layer fc7-sm_lomo
I0420 11:15:36.926424  3692 net.cpp:100] Creating Layer fc7-sm_lomo
I0420 11:15:36.926429  3692 net.cpp:434] fc7-sm_lomo <- fc6-sm_lomo
I0420 11:15:36.926435  3692 net.cpp:408] fc7-sm_lomo -> fc7-sm_lomo
I0420 11:15:36.967582  3692 net.cpp:150] Setting up fc7-sm_lomo
I0420 11:15:36.967641  3692 net.cpp:157] Top shape: 800 1024 (819200)
I0420 11:15:36.967648  3692 net.cpp:165] Memory required for data: 4387644800
I0420 11:15:36.967679  3692 layer_factory.hpp:77] Creating layer relu7-sm_lomo
I0420 11:15:36.967695  3692 net.cpp:100] Creating Layer relu7-sm_lomo
I0420 11:15:36.967703  3692 net.cpp:434] relu7-sm_lomo <- fc7-sm_lomo
I0420 11:15:36.967713  3692 net.cpp:395] relu7-sm_lomo -> fc7-sm_lomo (in-place)
I0420 11:15:36.968844  3692 net.cpp:150] Setting up relu7-sm_lomo
I0420 11:15:36.968863  3692 net.cpp:157] Top shape: 800 1024 (819200)
I0420 11:15:36.968868  3692 net.cpp:165] Memory required for data: 4390921600
I0420 11:15:36.968883  3692 layer_factory.hpp:77] Creating layer drop7-sm_lomo
I0420 11:15:36.968896  3692 net.cpp:100] Creating Layer drop7-sm_lomo
I0420 11:15:36.968902  3692 net.cpp:434] drop7-sm_lomo <- fc7-sm_lomo
I0420 11:15:36.968910  3692 net.cpp:395] drop7-sm_lomo -> fc7-sm_lomo (in-place)
I0420 11:15:36.968941  3692 net.cpp:150] Setting up drop7-sm_lomo
I0420 11:15:36.968950  3692 net.cpp:157] Top shape: 800 1024 (819200)
I0420 11:15:36.968955  3692 net.cpp:165] Memory required for data: 4394198400
I0420 11:15:36.968961  3692 layer_factory.hpp:77] Creating layer fc7-all_lomo
I0420 11:15:36.968973  3692 net.cpp:100] Creating Layer fc7-all_lomo
I0420 11:15:36.968978  3692 net.cpp:434] fc7-all_lomo <- fc7-sm_lomo
I0420 11:15:36.968991  3692 net.cpp:408] fc7-all_lomo -> fc7-all_lomo
I0420 11:15:36.970280  3692 net.cpp:150] Setting up fc7-all_lomo
I0420 11:15:36.970297  3692 net.cpp:157] Top shape: 800 2 (1600)
I0420 11:15:36.970302  3692 net.cpp:165] Memory required for data: 4394204800
I0420 11:15:36.970398  3692 layer_factory.hpp:77] Creating layer fc7-all_lomo_fc7-all_lomo_0_split
I0420 11:15:36.970415  3692 net.cpp:100] Creating Layer fc7-all_lomo_fc7-all_lomo_0_split
I0420 11:15:36.970422  3692 net.cpp:434] fc7-all_lomo_fc7-all_lomo_0_split <- fc7-all_lomo
I0420 11:15:36.970430  3692 net.cpp:408] fc7-all_lomo_fc7-all_lomo_0_split -> fc7-all_lomo_fc7-all_lomo_0_split_0
I0420 11:15:36.970439  3692 net.cpp:408] fc7-all_lomo_fc7-all_lomo_0_split -> fc7-all_lomo_fc7-all_lomo_0_split_1
I0420 11:15:36.970479  3692 net.cpp:150] Setting up fc7-all_lomo_fc7-all_lomo_0_split
I0420 11:15:36.970489  3692 net.cpp:157] Top shape: 800 2 (1600)
I0420 11:15:36.970494  3692 net.cpp:157] Top shape: 800 2 (1600)
I0420 11:15:36.970499  3692 net.cpp:165] Memory required for data: 4394217600
I0420 11:15:36.970504  3692 layer_factory.hpp:77] Creating layer accuracy
I0420 11:15:36.970526  3692 net.cpp:100] Creating Layer accuracy
I0420 11:15:36.970531  3692 net.cpp:434] accuracy <- fc7-all_lomo_fc7-all_lomo_0_split_0
I0420 11:15:36.970577  3692 net.cpp:434] accuracy <- label_data_2_split_0
I0420 11:15:36.970597  3692 net.cpp:408] accuracy -> accuracy
…
####->data list is loading: 96/100:################################################->data list is loading: 97/100:################################################->data list is loading: 98/100:#################################################->data list is loading: 99/100:#################################################->data list is loading:100/100:##################################################->video_list:dataset/cuhk03/split/sin_img_lomo/set02_test_noval_pair.txt
list example:
95489
I0420 11:15:50.811492  3692 net.cpp:150] Setting up data
I0420 11:15:50.811607  3692 net.cpp:157] Top shape: 10 64 40 20 (512000)
I0420 11:15:50.811619  3692 net.cpp:157] Top shape: 10 64 40 20 (512000)
I0420 11:15:50.811625  3692 net.cpp:157] Top shape: 10 (10)
I0420 11:15:50.811631  3692 net.cpp:165] Memory required for data: 4096040
I0420 11:15:50.811673  3692 layer_factory.hpp:77] Creating layer label_data_2_split
I0420 11:15:50.811740  3692 net.cpp:100] Creating Layer label_data_2_split
I0420 11:15:50.811751  3692 net.cpp:434] label_data_2_split <- label
I0420 11:15:50.811777  3692 net.cpp:408] label_data_2_split -> label_data_2_split_0
I0420 11:15:50.811795  3692 net.cpp:408] label_data_2_split -> label_data_2_split_1
I0420 11:15:50.811985  3692 net.cpp:150] Setting up label_data_2_split
I0420 11:15:50.812010  3692 net.cpp:157] Top shape: 10 (10)
I0420 11:15:50.812017  3692 net.cpp:157] Top shape: 10 (10)
I0420 11:15:50.812022  3692 net.cpp:165] Memory required for data: 4096120
I0420 11:15:50.812028  3692 layer_factory.hpp:77] Creating layer conv1
I0420 11:15:50.812088  3692 net.cpp:100] Creating Layer conv1
I0420 11:15:50.812096  3692 net.cpp:434] conv1 <- data_map_lomo
I0420 11:15:50.812108  3692 net.cpp:408] conv1 -> conv1
I0420 11:15:50.823243  3692 net.cpp:150] Setting up conv1
I0420 11:15:50.823298  3692 net.cpp:157] Top shape: 10 128 40 20 (1024000)
I0420 11:15:50.823307  3692 net.cpp:165] Memory required for data: 8192120
I0420 11:15:50.823348  3692 layer_factory.hpp:77] Creating layer relu1
I0420 11:15:50.823456  3692 net.cpp:100] Creating Layer relu1
I0420 11:15:50.823467  3692 net.cpp:434] relu1 <- conv1
I0420 11:15:50.823483  3692 net.cpp:395] relu1 -> conv1 (in-place)
I0420 11:15:50.823786  3692 net.cpp:150] Setting up relu1
I0420 11:15:50.823801  3692 net.cpp:157] Top shape: 10 128 40 20 (1024000)
I0420 11:15:50.823807  3692 net.cpp:165] Memory required for data: 12288120
I0420 11:15:50.823818  3692 layer_factory.hpp:77] Creating layer pool1
I0420 11:15:50.823871  3692 net.cpp:100] Creating Layer pool1
I0420 11:15:50.823880  3692 net.cpp:434] pool1 <- conv1
I0420 11:15:50.823894  3692 net.cpp:408] pool1 -> pool1
I0420 11:15:50.823984  3692 net.cpp:150] Setting up pool1
I0420 11:15:50.823997  3692 net.cpp:157] Top shape: 10 128 20 10 (256000)
I0420 11:15:50.824004  3692 net.cpp:165] Memory required for data: 13312120
I0420 11:15:50.824010  3692 layer_factory.hpp:77] Creating layer conv2
I0420 11:15:50.824062  3692 net.cpp:100] Creating Layer conv2
I0420 11:15:50.824072  3692 net.cpp:434] conv2 <- pool1
I0420 11:15:50.824085  3692 net.cpp:408] conv2 -> conv2
I0420 11:15:50.841692  3692 net.cpp:150] Setting up conv2
I0420 11:15:50.841760  3692 net.cpp:157] Top shape: 10 256 20 10 (512000)
I0420 11:15:50.841773  3692 net.cpp:165] Memory required for data: 15360120
I0420 11:15:50.841809  3692 layer_factory.hpp:77] Creating layer relu2
I0420 11:15:50.841873  3692 net.cpp:100] Creating Layer relu2
I0420 11:15:50.841886  3692 net.cpp:434] relu2 <- conv2
I0420 11:15:50.841903  3692 net.cpp:395] relu2 -> conv2 (in-place)
I0420 11:15:50.842262  3692 net.cpp:150] Setting up relu2
I0420 11:15:50.842283  3692 net.cpp:157] Top shape: 10 256 20 10 (512000)
I0420 11:15:50.842290  3692 net.cpp:165] Memory required for data: 17408120
I0420 11:15:50.842299  3692 layer_factory.hpp:77] Creating layer pool2
I0420 11:15:50.842350  3692 net.cpp:100] Creating Layer pool2
I0420 11:15:50.842361  3692 net.cpp:434] pool2 <- conv2
I0420 11:15:50.842375  3692 net.cpp:408] pool2 -> pool2
I0420 11:15:50.842531  3692 net.cpp:150] Setting up pool2
I0420 11:15:50.842548  3692 net.cpp:157] Top shape: 10 256 10 5 (128000)
I0420 11:15:50.842556  3692 net.cpp:165] Memory required for data: 17920120
I0420 11:15:50.842564  3692 layer_factory.hpp:77] Creating layer conv3
I0420 11:15:50.842598  3692 net.cpp:100] Creating Layer conv3
I0420 11:15:50.842608  3692 net.cpp:434] conv3 <- pool2
I0420 11:15:50.842620  3692 net.cpp:408] conv3 -> conv3
I0420 11:15:50.894850  3692 net.cpp:150] Setting up conv3
I0420 11:15:50.894927  3692 net.cpp:157] Top shape: 10 512 10 5 (256000)
I0420 11:15:50.894950  3692 net.cpp:165] Memory required for data: 18944120
I0420 11:15:50.894989  3692 layer_factory.hpp:77] Creating layer relu3
I0420 11:15:50.895027  3692 net.cpp:100] Creating Layer relu3
I0420 11:15:50.895042  3692 net.cpp:434] relu3 <- conv3
I0420 11:15:50.895064  3692 net.cpp:395] relu3 -> conv3 (in-place)
I0420 11:15:50.895442  3692 net.cpp:150] Setting up relu3
I0420 11:15:50.895469  3692 net.cpp:157] Top shape: 10 512 10 5 (256000)
I0420 11:15:50.895479  3692 net.cpp:165] Memory required for data: 19968120
I0420 11:15:50.895494  3692 layer_factory.hpp:77] Creating layer conv1_p
I0420 11:15:50.895588  3692 net.cpp:100] Creating Layer conv1_p
I0420 11:15:50.895601  3692 net.cpp:434] conv1_p <- data_map_lomo_p
I0420 11:15:50.895615  3692 net.cpp:408] conv1_p -> conv1_p
I0420 11:15:50.903041  3692 net.cpp:150] Setting up conv1_p
I0420 11:15:50.903093  3692 net.cpp:157] Top shape: 10 128 40 20 (1024000)
I0420 11:15:50.903105  3692 net.cpp:165] Memory required for data: 24064120
I0420 11:15:50.903115  3692 net.cpp:493] Sharing parameters 'conv1_w' owned by layer 'conv1', param index 0
I0420 11:15:50.903126  3692 net.cpp:493] Sharing parameters 'conv1_b' owned by layer 'conv1', param index 1
I0420 11:15:50.903132  3692 layer_factory.hpp:77] Creating layer relu1_p
I0420 11:15:50.903153  3692 net.cpp:100] Creating Layer relu1_p
I0420 11:15:50.903162  3692 net.cpp:434] relu1_p <- conv1_p
I0420 11:15:50.903172  3692 net.cpp:395] relu1_p -> conv1_p (in-place)
I0420 11:15:50.904214  3692 net.cpp:150] Setting up relu1_p
I0420 11:15:50.904237  3692 net.cpp:157] Top shape: 10 128 40 20 (1024000)
I0420 11:15:50.904245  3692 net.cpp:165] Memory required for data: 28160120
I0420 11:15:50.904253  3692 layer_factory.hpp:77] Creating layer pool1_p
I0420 11:15:50.904263  3692 net.cpp:100] Creating Layer pool1_p
I0420 11:15:50.904270  3692 net.cpp:434] pool1_p <- conv1_p
I0420 11:15:50.904284  3692 net.cpp:408] pool1_p -> pool1_p
I0420 11:15:50.904351  3692 net.cpp:150] Setting up pool1_p
I0420 11:15:50.904367  3692 net.cpp:157] Top shape: 10 128 20 10 (256000)
I0420 11:15:50.904373  3692 net.cpp:165] Memory required for data: 29184120
I0420 11:15:50.904405  3692 layer_factory.hpp:77] Creating layer conv2_p
I0420 11:15:50.904427  3692 net.cpp:100] Creating Layer conv2_p
I0420 11:15:50.904435  3692 net.cpp:434] conv2_p <- pool1_p
I0420 11:15:50.904445  3692 net.cpp:408] conv2_p -> conv2_p
I0420 11:15:50.918547  3692 net.cpp:150] Setting up conv2_p
I0420 11:15:50.918598  3692 net.cpp:157] Top shape: 10 256 20 10 (512000)
I0420 11:15:50.918606  3692 net.cpp:165] Memory required for data: 31232120
I0420 11:15:50.918622  3692 net.cpp:493] Sharing parameters 'conv2_w' owned by layer 'conv2', param index 0
I0420 11:15:50.918632  3692 net.cpp:493] Sharing parameters 'conv2_b' owned by layer 'conv2', param index 1
I0420 11:15:50.918639  3692 layer_factory.hpp:77] Creating layer relu2_p
I0420 11:15:50.918659  3692 net.cpp:100] Creating Layer relu2_p
I0420 11:15:50.918670  3692 net.cpp:434] relu2_p <- conv2_p
I0420 11:15:50.918681  3692 net.cpp:395] relu2_p -> conv2_p (in-place)
I0420 11:15:50.919733  3692 net.cpp:150] Setting up relu2_p
I0420 11:15:50.919761  3692 net.cpp:157] Top shape: 10 256 20 10 (512000)
I0420 11:15:50.919769  3692 net.cpp:165] Memory required for data: 33280120
I0420 11:15:50.919775  3692 layer_factory.hpp:77] Creating layer pool2_p
I0420 11:15:50.919788  3692 net.cpp:100] Creating Layer pool2_p
I0420 11:15:50.919795  3692 net.cpp:434] pool2_p <- conv2_p
I0420 11:15:50.919806  3692 net.cpp:408] pool2_p -> pool2_p
I0420 11:15:50.919895  3692 net.cpp:150] Setting up pool2_p
I0420 11:15:50.919908  3692 net.cpp:157] Top shape: 10 256 10 5 (128000)
I0420 11:15:50.919914  3692 net.cpp:165] Memory required for data: 33792120
I0420 11:15:50.919920  3692 layer_factory.hpp:77] Creating layer conv3_p
I0420 11:15:50.920033  3692 net.cpp:100] Creating Layer conv3_p
I0420 11:15:50.920044  3692 net.cpp:434] conv3_p <- pool2_p
I0420 11:15:50.920054  3692 net.cpp:408] conv3_p -> conv3_p
I0420 11:15:50.970798  3692 net.cpp:150] Setting up conv3_p
I0420 11:15:50.970914  3692 net.cpp:157] Top shape: 10 512 10 5 (256000)
I0420 11:15:50.970935  3692 net.cpp:165] Memory required for data: 34816120
I0420 11:15:50.970957  3692 net.cpp:493] Sharing parameters 'conv3_w' owned by layer 'conv3', param index 0
I0420 11:15:50.970974  3692 net.cpp:493] Sharing parameters 'conv3_b' owned by layer 'conv3', param index 1
I0420 11:15:50.970993  3692 layer_factory.hpp:77] Creating layer relu3_p
I0420 11:15:50.971025  3692 net.cpp:100] Creating Layer relu3_p
I0420 11:15:50.971046  3692 net.cpp:434] relu3_p <- conv3_p
I0420 11:15:50.971071  3692 net.cpp:395] relu3_p -> conv3_p (in-place)
I0420 11:15:50.971518  3692 net.cpp:150] Setting up relu3_p
I0420 11:15:50.971545  3692 net.cpp:157] Top shape: 10 512 10 5 (256000)
I0420 11:15:50.971576  3692 net.cpp:165] Memory required for data: 35840120
I0420 11:15:50.971614  3692 layer_factory.hpp:77] Creating layer fea-all_lomo
I0420 11:15:50.971637  3692 net.cpp:100] Creating Layer fea-all_lomo
I0420 11:15:50.971654  3692 net.cpp:434] fea-all_lomo <- conv3
I0420 11:15:50.971668  3692 net.cpp:434] fea-all_lomo <- conv3_p
I0420 11:15:50.971685  3692 net.cpp:408] fea-all_lomo -> fea-all_lomo
I0420 11:15:50.971830  3692 net.cpp:150] Setting up fea-all_lomo
I0420 11:15:50.971851  3692 net.cpp:157] Top shape: 10 1024 10 5 (512000)
I0420 11:15:50.971863  3692 net.cpp:165] Memory required for data: 37888120
I0420 11:15:50.971874  3692 layer_factory.hpp:77] Creating layer fea-all_lomo_fea-all_lomo_0_split
I0420 11:15:50.971889  3692 net.cpp:100] Creating Layer fea-all_lomo_fea-all_lomo_0_split
I0420 11:15:50.971904  3692 net.cpp:434] fea-all_lomo_fea-all_lomo_0_split <- fea-all_lomo
I0420 11:15:50.971925  3692 net.cpp:408] fea-all_lomo_fea-all_lomo_0_split -> fea-all_lomo_fea-all_lomo_0_split_0
I0420 11:15:50.971951  3692 net.cpp:408] fea-all_lomo_fea-all_lomo_0_split -> fea-all_lomo_fea-all_lomo_0_split_1
I0420 11:15:50.971974  3692 net.cpp:408] fea-all_lomo_fea-all_lomo_0_split -> fea-all_lomo_fea-all_lomo_0_split_2
I0420 11:15:50.972090  3692 net.cpp:150] Setting up fea-all_lomo_fea-all_lomo_0_split
I0420 11:15:50.972131  3692 net.cpp:157] Top shape: 10 1024 10 5 (512000)
I0420 11:15:50.972146  3692 net.cpp:157] Top shape: 10 1024 10 5 (512000)
I0420 11:15:50.972158  3692 net.cpp:157] Top shape: 10 1024 10 5 (512000)
I0420 11:15:50.972168  3692 net.cpp:165] Memory required for data: 44032120
I0420 11:15:50.972179  3692 layer_factory.hpp:77] Creating layer conv-sm/1x1_lomo
I0420 11:15:50.972256  3692 net.cpp:100] Creating Layer conv-sm/1x1_lomo
I0420 11:15:50.972273  3692 net.cpp:434] conv-sm/1x1_lomo <- fea-all_lomo_fea-all_lomo_0_split_0
I0420 11:15:50.972296  3692 net.cpp:408] conv-sm/1x1_lomo -> conv-sm/1x1_lomo
I0420 11:15:51.144023  3692 net.cpp:150] Setting up conv-sm/1x1_lomo
I0420 11:15:51.144093  3692 net.cpp:157] Top shape: 10 512 10 5 (256000)
I0420 11:15:51.144104  3692 net.cpp:165] Memory required for data: 45056120
I0420 11:15:51.144127  3692 layer_factory.hpp:77] Creating layer relu/1x1_lomo
I0420 11:15:51.144146  3692 net.cpp:100] Creating Layer relu/1x1_lomo
I0420 11:15:51.144161  3692 net.cpp:434] relu/1x1_lomo <- conv-sm/1x1_lomo
I0420 11:15:51.144176  3692 net.cpp:395] relu/1x1_lomo -> conv-sm/1x1_lomo (in-place)
I0420 11:15:51.144644  3692 net.cpp:150] Setting up relu/1x1_lomo
I0420 11:15:51.144675  3692 net.cpp:157] Top shape: 10 512 10 5 (256000)
I0420 11:15:51.144685  3692 net.cpp:165] Memory required for data: 46080120
I0420 11:15:51.144693  3692 layer_factory.hpp:77] Creating layer conv-sm/2x2_lomo
I0420 11:15:51.144721  3692 net.cpp:100] Creating Layer conv-sm/2x2_lomo
I0420 11:15:51.144733  3692 net.cpp:434] conv-sm/2x2_lomo <- fea-all_lomo_fea-all_lomo_0_split_1
I0420 11:15:51.144748  3692 net.cpp:408] conv-sm/2x2_lomo -> conv-sm/2x2_lomo
I0420 11:15:51.237076  3692 net.cpp:150] Setting up conv-sm/2x2_lomo
I0420 11:15:51.237149  3692 net.cpp:157] Top shape: 10 256 10 5 (128000)
I0420 11:15:51.237157  3692 net.cpp:165] Memory required for data: 46592120
I0420 11:15:51.237175  3692 layer_factory.hpp:77] Creating layer relu/2x2_lomo
I0420 11:15:51.237193  3692 net.cpp:100] Creating Layer relu/2x2_lomo
I0420 11:15:51.237201  3692 net.cpp:434] relu/2x2_lomo <- conv-sm/2x2_lomo
I0420 11:15:51.237210  3692 net.cpp:395] relu/2x2_lomo -> conv-sm/2x2_lomo (in-place)
I0420 11:15:51.237529  3692 net.cpp:150] Setting up relu/2x2_lomo
I0420 11:15:51.237543  3692 net.cpp:157] Top shape: 10 256 10 5 (128000)
I0420 11:15:51.237561  3692 net.cpp:165] Memory required for data: 47104120
I0420 11:15:51.237573  3692 layer_factory.hpp:77] Creating layer conv-sm/4x4_lomo
I0420 11:15:51.237591  3692 net.cpp:100] Creating Layer conv-sm/4x4_lomo
I0420 11:15:51.237597  3692 net.cpp:434] conv-sm/4x4_lomo <- fea-all_lomo_fea-all_lomo_0_split_2
I0420 11:15:51.237610  3692 net.cpp:408] conv-sm/4x4_lomo -> conv-sm/4x4_lomo
I0420 11:15:51.310168  3692 net.cpp:150] Setting up conv-sm/4x4_lomo
I0420 11:15:51.310241  3692 net.cpp:157] Top shape: 10 256 10 5 (128000)
I0420 11:15:51.310250  3692 net.cpp:165] Memory required for data: 47616120
I0420 11:15:51.310269  3692 layer_factory.hpp:77] Creating layer relu/4x4_lomo
I0420 11:15:51.310282  3692 net.cpp:100] Creating Layer relu/4x4_lomo
I0420 11:15:51.310290  3692 net.cpp:434] relu/4x4_lomo <- conv-sm/4x4_lomo
I0420 11:15:51.310300  3692 net.cpp:395] relu/4x4_lomo -> conv-sm/4x4_lomo (in-place)
I0420 11:15:51.311514  3692 net.cpp:150] Setting up relu/4x4_lomo
I0420 11:15:51.311534  3692 net.cpp:157] Top shape: 10 256 10 5 (128000)
I0420 11:15:51.311558  3692 net.cpp:165] Memory required for data: 48128120
I0420 11:15:51.311563  3692 layer_factory.hpp:77] Creating layer sm-all_lomo
I0420 11:15:51.311578  3692 net.cpp:100] Creating Layer sm-all_lomo
I0420 11:15:51.311584  3692 net.cpp:434] sm-all_lomo <- conv-sm/1x1_lomo
I0420 11:15:51.311591  3692 net.cpp:434] sm-all_lomo <- conv-sm/2x2_lomo
I0420 11:15:51.311597  3692 net.cpp:434] sm-all_lomo <- conv-sm/4x4_lomo
I0420 11:15:51.311604  3692 net.cpp:408] sm-all_lomo -> sm-all_lomo
I0420 11:15:51.311660  3692 net.cpp:150] Setting up sm-all_lomo
I0420 11:15:51.311669  3692 net.cpp:157] Top shape: 10 1024 10 5 (512000)
I0420 11:15:51.311674  3692 net.cpp:165] Memory required for data: 50176120
I0420 11:15:51.311697  3692 layer_factory.hpp:77] Creating layer conv4-sm_lomo
I0420 11:15:51.311714  3692 net.cpp:100] Creating Layer conv4-sm_lomo
I0420 11:15:51.311720  3692 net.cpp:434] conv4-sm_lomo <- sm-all_lomo
I0420 11:15:51.311731  3692 net.cpp:408] conv4-sm_lomo -> conv4-sm_lomo
I0420 11:15:51.615140  3692 net.cpp:150] Setting up conv4-sm_lomo
I0420 11:15:51.615195  3692 net.cpp:157] Top shape: 10 1024 10 5 (512000)
I0420 11:15:51.615202  3692 net.cpp:165] Memory required for data: 52224120
I0420 11:15:51.615221  3692 layer_factory.hpp:77] Creating layer relu4_lomo
I0420 11:15:51.615236  3692 net.cpp:100] Creating Layer relu4_lomo
I0420 11:15:51.615244  3692 net.cpp:434] relu4_lomo <- conv4-sm_lomo
I0420 11:15:51.615252  3692 net.cpp:395] relu4_lomo -> conv4-sm_lomo (in-place)
I0420 11:15:51.616384  3692 net.cpp:150] Setting up relu4_lomo
I0420 11:15:51.616405  3692 net.cpp:157] Top shape: 10 1024 10 5 (512000)
I0420 11:15:51.616410  3692 net.cpp:165] Memory required for data: 54272120
I0420 11:15:51.616415  3692 layer_factory.hpp:77] Creating layer pool5_lomo
I0420 11:15:51.616425  3692 net.cpp:100] Creating Layer pool5_lomo
I0420 11:15:51.616431  3692 net.cpp:434] pool5_lomo <- conv4-sm_lomo
I0420 11:15:51.616442  3692 net.cpp:408] pool5_lomo -> pool5_lomo
I0420 11:15:51.616499  3692 net.cpp:150] Setting up pool5_lomo
I0420 11:15:51.616510  3692 net.cpp:157] Top shape: 10 1024 5 2 (102400)
I0420 11:15:51.616515  3692 net.cpp:165] Memory required for data: 54681720
I0420 11:15:51.616520  3692 layer_factory.hpp:77] Creating layer fc6-sm_lomo
I0420 11:15:51.616533  3692 net.cpp:100] Creating Layer fc6-sm_lomo
I0420 11:15:51.616539  3692 net.cpp:434] fc6-sm_lomo <- pool5_lomo
I0420 11:15:51.616549  3692 net.cpp:408] fc6-sm_lomo -> fc6-sm_lomo
I0420 11:15:52.012475  3692 net.cpp:150] Setting up fc6-sm_lomo
I0420 11:15:52.012543  3692 net.cpp:157] Top shape: 10 1024 (10240)
I0420 11:15:52.012550  3692 net.cpp:165] Memory required for data: 54722680
I0420 11:15:52.012564  3692 layer_factory.hpp:77] Creating layer relu6-sm_lomo
I0420 11:15:52.012583  3692 net.cpp:100] Creating Layer relu6-sm_lomo
I0420 11:15:52.012590  3692 net.cpp:434] relu6-sm_lomo <- fc6-sm_lomo
I0420 11:15:52.012598  3692 net.cpp:395] relu6-sm_lomo -> fc6-sm_lomo (in-place)
I0420 11:15:52.012879  3692 net.cpp:150] Setting up relu6-sm_lomo
I0420 11:15:52.012893  3692 net.cpp:157] Top shape: 10 1024 (10240)
I0420 11:15:52.012898  3692 net.cpp:165] Memory required for data: 54763640
I0420 11:15:52.012907  3692 layer_factory.hpp:77] Creating layer drop6-sm_lomo
I0420 11:15:52.012926  3692 net.cpp:100] Creating Layer drop6-sm_lomo
I0420 11:15:52.012931  3692 net.cpp:434] drop6-sm_lomo <- fc6-sm_lomo
I0420 11:15:52.012945  3692 net.cpp:395] drop6-sm_lomo -> fc6-sm_lomo (in-place)
I0420 11:15:52.012979  3692 net.cpp:150] Setting up drop6-sm_lomo
I0420 11:15:52.012989  3692 net.cpp:157] Top shape: 10 1024 (10240)
I0420 11:15:52.012994  3692 net.cpp:165] Memory required for data: 54804600
I0420 11:15:52.012997  3692 layer_factory.hpp:77] Creating layer fc7-sm_lomo
I0420 11:15:52.013010  3692 net.cpp:100] Creating Layer fc7-sm_lomo
I0420 11:15:52.013016  3692 net.cpp:434] fc7-sm_lomo <- fc6-sm_lomo
I0420 11:15:52.013025  3692 net.cpp:408] fc7-sm_lomo -> fc7-sm_lomo
I0420 11:15:52.044499  3692 net.cpp:150] Setting up fc7-sm_lomo
I0420 11:15:52.044539  3692 net.cpp:157] Top shape: 10 1024 (10240)
I0420 11:15:52.044545  3692 net.cpp:165] Memory required for data: 54845560
I0420 11:15:52.044556  3692 layer_factory.hpp:77] Creating layer relu7-sm_lomo
I0420 11:15:52.044567  3692 net.cpp:100] Creating Layer relu7-sm_lomo
I0420 11:15:52.044574  3692 net.cpp:434] relu7-sm_lomo <- fc7-sm_lomo
I0420 11:15:52.044580  3692 net.cpp:395] relu7-sm_lomo -> fc7-sm_lomo (in-place)
I0420 11:15:52.044801  3692 net.cpp:150] Setting up relu7-sm_lomo
I0420 11:15:52.044814  3692 net.cpp:157] Top shape: 10 1024 (10240)
I0420 11:15:52.044819  3692 net.cpp:165] Memory required for data: 54886520
I0420 11:15:52.044824  3692 layer_factory.hpp:77] Creating layer drop7-sm_lomo
I0420 11:15:52.044844  3692 net.cpp:100] Creating Layer drop7-sm_lomo
I0420 11:15:52.044850  3692 net.cpp:434] drop7-sm_lomo <- fc7-sm_lomo
I0420 11:15:52.044860  3692 net.cpp:395] drop7-sm_lomo -> fc7-sm_lomo (in-place)
I0420 11:15:52.044890  3692 net.cpp:150] Setting up drop7-sm_lomo
I0420 11:15:52.044904  3692 net.cpp:157] Top shape: 10 1024 (10240)
I0420 11:15:52.044909  3692 net.cpp:165] Memory required for data: 54927480
I0420 11:15:52.044914  3692 layer_factory.hpp:77] Creating layer fc7-all_lomo
I0420 11:15:52.044925  3692 net.cpp:100] Creating Layer fc7-all_lomo
I0420 11:15:52.044930  3692 net.cpp:434] fc7-all_lomo <- fc7-sm_lomo
I0420 11:15:52.044940  3692 net.cpp:408] fc7-all_lomo -> fc7-all_lomo
I0420 11:15:52.045133  3692 net.cpp:150] Setting up fc7-all_lomo
I0420 11:15:52.045145  3692 net.cpp:157] Top shape: 10 2 (20)
I0420 11:15:52.045148  3692 net.cpp:165] Memory required for data: 54927560
I0420 11:15:52.045156  3692 layer_factory.hpp:77] Creating layer fc7-all_lomo_fc7-all_lomo_0_split
I0420 11:15:52.045164  3692 net.cpp:100] Creating Layer fc7-all_lomo_fc7-all_lomo_0_split
I0420 11:15:52.045169  3692 net.cpp:434] fc7-all_lomo_fc7-all_lomo_0_split <- fc7-all_lomo
I0420 11:15:52.045176  3692 net.cpp:408] fc7-all_lomo_fc7-all_lomo_0_split -> fc7-all_lomo_fc7-all_lomo_0_split_0
I0420 11:15:52.045186  3692 net.cpp:408] fc7-all_lomo_fc7-all_lomo_0_split -> fc7-all_lomo_fc7-all_lomo_0_split_1
I0420 11:15:52.045245  3692 net.cpp:150] Setting up fc7-all_lomo_fc7-all_lomo_0_split
I0420 11:15:52.045254  3692 net.cpp:157] Top shape: 10 2 (20)
I0420 11:15:52.045260  3692 net.cpp:157] Top shape: 10 2 (20)
I0420 11:15:52.045264  3692 net.cpp:165] Memory required for data: 54927720
I0420 11:15:52.045269  3692 layer_factory.hpp:77] Creating layer accuracy
I0420 11:15:52.045281  3692 net.cpp:100] Creating Layer accuracy
I0420 11:15:52.045287  3692 net.cpp:434] accuracy <- fc7-all_lomo_fc7-all_lomo_0_split_0
I0420 11:15:52.045294  3692 net.cpp:434] accuracy <- label_data_2_split_0
I0420 11:15:52.045300  3692 net.cpp:408] accuracy -> accuracy
…
